model_structures:GPT2_model(
  (gpt): GPT2LMHeadModel(
    (transformer): GPT2Model(
      (wte): Embedding(50257, 768)
      (wpe): Embedding(1024, 768)
      (drop): Dropout(p=0.1, inplace=False)
      (h): ModuleList(
        (0-11): 12 x GPT2Block(
          (ln_1): LayerNorm((768,), eps=1e-05, elementwise_affine=True)
          (attn): GPT2Attention(
            (c_attn): Conv1D()
            (c_proj): Conv1D()
            (attn_dropout): Dropout(p=0.1, inplace=False)
            (resid_dropout): Dropout(p=0.1, inplace=False)
          )
          (ln_2): LayerNorm((768,), eps=1e-05, elementwise_affine=True)
          (mlp): GPT2MLP(
            (c_fc): Conv1D()
            (c_proj): Conv1D()
            (act): NewGELUActivation()
            (dropout): Dropout(p=0.1, inplace=False)
          )
        )
      )
      (ln_f): LayerNorm((768,), eps=1e-05, elementwise_affine=True)
    )
    (lm_head): Linear(in_features=768, out_features=50257, bias=False)
  )
)
Total Parameters: 124439808
Trainable Parameters: 67736832
-----------------------------------------------------
  new_train  2023-12-28 22:12:35
2023-12-28 22:19:00
Loss of the network on the test data: 2.358855321121216
Accuracy of the network on the test data: 52.53942857142857 %
Epoch: 1, Learning Rate: 0.003
2023-12-28 22:25:46
Loss of the network on the test data: 2.2057307001113893
…
2023-12-28 23:06:16
Loss of the network on the test data: 2.023405979156494
Accuracy of the network on the test data: 52.513619047619045 %
Epoch: 8, Learning Rate: 8.1e-05
2023-12-28 23:12:18
Loss of the network on the test data: 2.0173909856796266
Accuracy of the network on the test data: 52.51314285714286 %
Epoch: 9, Learning Rate: 2.43e-05
2023-12-28 23:17:56
Loss of the network on the test data: 2.0154388566970827
Accuracy of the network on the test data: 52.514380952380954 %
Epoch: 10, Learning Rate: 2.43e-05
model_structures:GPT2_model(
  (gpt): GPT2LMHeadModel(
    (transformer): GPT2Model(
      (wte): Embedding(50257, 768)
      (wpe): Embedding(1024, 768)
      (drop): Dropout(p=0.1, inplace=False)
      (h): ModuleList(
        (0-11): 12 x GPT2Block(
          (ln_1): LayerNorm((768,), eps=1e-05, elementwise_affine=True)
          (attn): GPT2Attention(
            (c_attn): Conv1D()
            (c_proj): Conv1D()
            (attn_dropout): Dropout(p=0.1, inplace=False)
            (resid_dropout): Dropout(p=0.1, inplace=False)
          )
          (ln_2): LayerNorm((768,), eps=1e-05, elementwise_affine=True)
          (mlp): GPT2MLP(
            (c_fc): Conv1D()
            (c_proj): Conv1D()
            (act): NewGELUActivation()
            (dropout): Dropout(p=0.1, inplace=False)
          )
        )
      )
      (ln_f): LayerNorm((768,), eps=1e-05, elementwise_affine=True)
    )
    (lm_head): Linear(in_features=768, out_features=50257, bias=False)
  )
)
Total Parameters: 124439808
Trainable Parameters: 67736832
-----------------------------------------------------
  new_test  2023-12-28 23:28:24
model loaded from ./output/model_gpt_partial_8.ckpt
method:greedy
bleu_score:0.3196846872916956
rouge_score:0.04116638033852229
-----------------------------------------------------
model_structures:GPT2_model(
  (gpt): GPT2LMHeadModel(
    (transformer): GPT2Model(
      (wte): Embedding(50257, 768)
      (wpe): Embedding(1024, 768)
      (drop): Dropout(p=0.1, inplace=False)
      (h): ModuleList(
        (0-11): 12 x GPT2Block(
          (ln_1): LayerNorm((768,), eps=1e-05, elementwise_affine=True)
          (attn): GPT2Attention(
            (c_attn): Conv1D()
            (c_proj): Conv1D()
            (attn_dropout): Dropout(p=0.1, inplace=False)
            (resid_dropout): Dropout(p=0.1, inplace=False)
          )
          (ln_2): LayerNorm((768,), eps=1e-05, elementwise_affine=True)
          (mlp): GPT2MLP(
            (c_fc): Conv1D()
            (c_proj): Conv1D()
            (act): NewGELUActivation()
            (dropout): Dropout(p=0.1, inplace=False)
          )
        )
      )
      (ln_f): LayerNorm((768,), eps=1e-05, elementwise_affine=True)
    )
    (lm_head): Linear(in_features=768, out_features=50257, bias=False)
  )
)
Total Parameters: 124439808
Trainable Parameters: 67736832
-----------------------------------------------------
  --------------------new_train  2023-12-29 08:23:25------------------------------------------HOHOHO
2023-12-29 08:30:12
Loss of the network on the test data: 2.3086360807418824
Accuracy of the network on the test data: 52.55238095238095 %
…
