  --------------------new_train  2023-12-29 01:09:30
2023-12-29 01:14:16
Loss of the network on the test data: 1.5259904481887818
Accuracy of the network on the test data: 52.523809523809526 %
Epoch: 1, Learning Rate: 0.003
method:greedy
bleu_score:0.22066015705634473
rouge_score:0.02959830826884311
-----------------------------------------------------
model_structures:GPT2_model(
  (gpt): PeftModelForCausalLM(
    (base_model): GPT2LMHeadModel(
      (transformer): GPT2Model(
        (wte): Embedding(50257, 768)
        (wpe): Embedding(1024, 768)
        (drop): Dropout(p=0.1, inplace=False)
        (h): ModuleList(
          (0-11): 12 x GPT2Block(
            (ln_1): LayerNorm((768,), eps=1e-05, elementwise_affine=True)
            (attn): GPT2Attention(
              (c_attn): Conv1D()
              (c_proj): Conv1D()
              (attn_dropout): Dropout(p=0.1, inplace=False)
              (resid_dropout): Dropout(p=0.1, inplace=False)
            )
            (ln_2): LayerNorm((768,), eps=1e-05, elementwise_affine=True)
            (mlp): GPT2MLP(
              (c_fc): Conv1D()
              (c_proj): Conv1D()
              (act): NewGELUActivation()
              (dropout): Dropout(p=0.1, inplace=False)
            )
          )
        )
        (ln_f): LayerNorm((768,), eps=1e-05, elementwise_affine=True)
      )
      (lm_head): Linear(in_features=768, out_features=50257, bias=False)
    )
    (prompt_encoder): ModuleDict(
      (default): PrefixEncoder(
        (embedding): Embedding(20, 18432)
      )
    )
    (word_embeddings): Embedding(50257, 768)
  )
)
Total Parameters: 124808448
Trainable Parameters: 368640
-----------------------------------------------------
  --------------------new_test  2023-12-29 01:34:40
model loaded from ./output/model_gpt_prefix.ckpt
method:greedy
bleu_score:0.22066015705634473
rouge_score:0.02959830826884311
nltk_bleu_score:0.0
-----------------------------------------------------
model_structures:GPT2_model(
  (gpt): PeftModelForCausalLM(
    (base_model): GPT2LMHeadModel(
      (transformer): GPT2Model(
        (wte): Embedding(50257, 768)
        (wpe): Embedding(1024, 768)
        (drop): Dropout(p=0.1, inplace=False)
        (h): ModuleList(
          (0-11): 12 x GPT2Block(
            (ln_1): LayerNorm((768,), eps=1e-05, elementwise_affine=True)
            (attn): GPT2Attention(
              (c_attn): Conv1D()
              (c_proj): Conv1D()
              (attn_dropout): Dropout(p=0.1, inplace=False)
              (resid_dropout): Dropout(p=0.1, inplace=False)
            )
            (ln_2): LayerNorm((768,), eps=1e-05, elementwise_affine=True)
            (mlp): GPT2MLP(
              (c_fc): Conv1D()
              (c_proj): Conv1D()
              (act): NewGELUActivation()
              (dropout): Dropout(p=0.1, inplace=False)
            )
          )
        )
        (ln_f): LayerNorm((768,), eps=1e-05, elementwise_affine=True)
      )
      (lm_head): Linear(in_features=768, out_features=50257, bias=False)
    )
    (prompt_encoder): ModuleDict(
      (default): PrefixEncoder(
        (embedding): Embedding(20, 18432)
      )
    )
    (word_embeddings): Embedding(50257, 768)
  )
)
Total Parameters: 124808448
Trainable Parameters: 368640
-----------------------------------------------------
  --------------------new_test  2023-12-29 01:37:11
model loaded from ./output/model_gpt_prefix.ckpt
method:greedy
bleu_score:0.22066015705634473
rouge_score:0.02959830826884311
nltk_bleu_score:0.0
-----------------------------------------------------
model_structures:GPT2_model(
  (gpt): PeftModelForCausalLM(
    (base_model): GPT2LMHeadModel(
      (transformer): GPT2Model(
        (wte): Embedding(50257, 768)
        (wpe): Embedding(1024, 768)
        (drop): Dropout(p=0.1, inplace=False)
        (h): ModuleList(
          (0-11): 12 x GPT2Block(
            (ln_1): LayerNorm((768,), eps=1e-05, elementwise_affine=True)
            (attn): GPT2Attention(
              (c_attn): Conv1D()
              (c_proj): Conv1D()
              (attn_dropout): Dropout(p=0.1, inplace=False)
              (resid_dropout): Dropout(p=0.1, inplace=False)
            )
            (ln_2): LayerNorm((768,), eps=1e-05, elementwise_affine=True)
            (mlp): GPT2MLP(
              (c_fc): Conv1D()
              (c_proj): Conv1D()
              (act): NewGELUActivation()
              (dropout): Dropout(p=0.1, inplace=False)
            )
          )
        )
        (ln_f): LayerNorm((768,), eps=1e-05, elementwise_affine=True)
      )
      (lm_head): Linear(in_features=768, out_features=50257, bias=False)
    )
    (prompt_encoder): ModuleDict(
      (default): PrefixEncoder(
        (embedding): Embedding(20, 18432)
      )
    )
    (word_embeddings): Embedding(50257, 768)
  )
)
Total Parameters: 124808448
Trainable Parameters: 368640
-----------------------------------------------------
  --------------------new_train  2023-12-29 03:00:58------------------------------------------HOHOHO
2023-12-29 03:06:05
Loss of the network on the test data: 1.527489015007019
Accuracy of the network on the test data: 52.512190476190476 %
Epoch: 1, Learning Rate: 0.003
2023-12-29 03:11:41
…
  --------------------new_test  2023-12-29 23:38:13
model loaded from ./output/model_gpt_prefix.ckpt
method:greedy
bleu_score:0.22111743679580947
rouge_score:0.02597402553481504
-----------------------------------------------------
method:top_k_p
bleu_score:0.2179850931441999
rouge_score:0.022727272364772736
-----------------------------------------------------
method:beam
bleu_score:0.27616414619773216
rouge_score:0.025518340853409448
-----------------------------------------------------
model_structures:GPT2_model(
  (gpt): PeftModelForCausalLM(
    (base_model): GPT2LMHeadModel(
      (transformer): GPT2Model(
        (wte): Embedding(50257, 768)
        (wpe): Embedding(1024, 768)
        (drop): Dropout(p=0.1, inplace=False)
        (h): ModuleList(
          (0-11): 12 x GPT2Block(
            (ln_1): LayerNorm((768,), eps=1e-05, elementwise_affine=True)
            (attn): GPT2Attention(
              (c_attn): Conv1D()
              (c_proj): Conv1D()
              (attn_dropout): Dropout(p=0.1, inplace=False)
              (resid_dropout): Dropout(p=0.1, inplace=False)
            )
            (ln_2): LayerNorm((768,), eps=1e-05, elementwise_affine=True)
            (mlp): GPT2MLP(
              (c_fc): Conv1D()
              (c_proj): Conv1D()
              (act): NewGELUActivation()
              (dropout): Dropout(p=0.1, inplace=False)
            )
          )
        )
        (ln_f): LayerNorm((768,), eps=1e-05, elementwise_affine=True)
      )
      (lm_head): Linear(in_features=768, out_features=50257, bias=False)
    )
    (prompt_encoder): ModuleDict(
      (default): PrefixEncoder(
        (embedding): Embedding(20, 18432)
      )
    )
    (word_embeddings): Embedding(50257, 768)
  )
)
Total Parameters: 124808448
Trainable Parameters: 368640
-----------------------------------------------------
