…
5
  --------------------new_train  2023-12-29 02:11:33
  --------------------new_train  2023-12-29 02:12:45
  --------------------new_train  2023-12-29 02:15:05
2023-12-29 02:20:13
Loss of the network on the test data: 1.525541139602661
Accuracy of the network on the test data: 52.49133333333333 %
Epoch: 1, Learning Rate: 0.003
method:greedy
bleu_score:0.2706428321020834
rouge_score:0.032727272284363645
-----------------------------------------------------
model_structures:GPT2_model(
  (gpt): PeftModelForCausalLM(
    (base_model): GPT2LMHeadModel(
      (transformer): GPT2Model(
        (wte): Embedding(50257, 768)
        (wpe): Embedding(1024, 768)
        (drop): Dropout(p=0.1, inplace=False)
        (h): ModuleList(
          (0-11): 12 x GPT2Block(
            (ln_1): LayerNorm((768,), eps=1e-05, elementwise_affine=True)
            (attn): GPT2Attention(
              (c_attn): Conv1D()
              (c_proj): Conv1D()
              (attn_dropout): Dropout(p=0.1, inplace=False)
              (resid_dropout): Dropout(p=0.1, inplace=False)
            )
            (ln_2): LayerNorm((768,), eps=1e-05, elementwise_affine=True)
            (mlp): GPT2MLP(
              (c_fc): Conv1D()
              (c_proj): Conv1D()
              (act): NewGELUActivation()
              (dropout): Dropout(p=0.1, inplace=False)
            )
          )
        )
        (ln_f): LayerNorm((768,), eps=1e-05, elementwise_affine=True)
      )
      (lm_head): Linear(in_features=768, out_features=50257, bias=False)
    )
    (prompt_encoder): ModuleDict(
      (default): PromptEmbedding(
        (embedding): Embedding(8, 768)
      )
    )
    (word_embeddings): Embedding(50257, 768)
  )
)
Total Parameters: 124445952
Trainable Parameters: 6144
-----------------------------------------------------
  --------------------new_train  2023-12-29 03:57:22------------------------------------------HOHOHO
2023-12-29 04:03:09
Loss of the network on the test data: 1.5186104759216308
Accuracy of the network on the test data: 52.49485714285714 %
Epoch: 1, Learning Rate: 0.003
2023-12-29 04:09:14
…
  --------------------new_test  2023-12-29 23:38:44
model loaded from ./output/model_gpt_prompt.ckpt
method:greedy
bleu_score:0.29481613441315535
rouge_score:0.03305785078647634
-----------------------------------------------------
method:top_k_p
bleu_score:0.2582200145195884
rouge_score:0.02139037388683549
-----------------------------------------------------
method:beam
bleu_score:0.27444240247829027
rouge_score:0.02980625886101
-----------------------------------------------------
model_structures:GPT2_model(
  (gpt): PeftModelForCausalLM(
    (base_model): GPT2LMHeadModel(
      (transformer): GPT2Model(
        (wte): Embedding(50257, 768)
        (wpe): Embedding(1024, 768)
        (drop): Dropout(p=0.1, inplace=False)
        (h): ModuleList(
          (0-11): 12 x GPT2Block(
            (ln_1): LayerNorm((768,), eps=1e-05, elementwise_affine=True)
            (attn): GPT2Attention(
              (c_attn): Conv1D()
              (c_proj): Conv1D()
              (attn_dropout): Dropout(p=0.1, inplace=False)
              (resid_dropout): Dropout(p=0.1, inplace=False)
            )
            (ln_2): LayerNorm((768,), eps=1e-05, elementwise_affine=True)
            (mlp): GPT2MLP(
              (c_fc): Conv1D()
              (c_proj): Conv1D()
              (act): NewGELUActivation()
              (dropout): Dropout(p=0.1, inplace=False)
            )
          )
        )
        (ln_f): LayerNorm((768,), eps=1e-05, elementwise_affine=True)
      )
      (lm_head): Linear(in_features=768, out_features=50257, bias=False)
    )
    (prompt_encoder): ModuleDict(
      (default): PromptEmbedding(
        (embedding): Embedding(10, 768)
      )
    )
    (word_embeddings): Embedding(50257, 768)
  )
)
Total Parameters: 124447488
Trainable Parameters: 7680
-----------------------------------------------------
